"builtin.module"() ({
  "func.func"() <{function_type = (tensor<1x10xf32>) -> tensor<1x5xf32>, sym_name = "fc_relu"}> ({
  ^bb0(%arg0: tensor<1x10xf32>):
    %0 = "tosa.const"() <{value = dense<[[… > : tensor<10x5xf32>}> : () -> tensor<10x5xf32>
    %1 = "tosa.const"() <{value = dense<[-1.48064506, -0.66992253, -0.123621635, 0.19448939, -0.396797091]> : tensor<5xf32>}> : () -> tensor<5xf32>
    %2 = "tosa.const"() <{value = dense<0.000000e+00> : tensor<1x5xf32>}> : () -> tensor<1x5xf32>
    %3 = "tosa.reshape"(%1) : (tensor<5xf32>) -> tensor<1x5xf32>
    %4 = "tosa.matmul"(%arg0, %0) : (tensor<1x10xf32>, tensor<10x5xf32>) -> tensor<1x5xf32>
    %5 = "tosa.add"(%4, %3) : (tensor<1x5xf32>, tensor<1x5xf32>) -> tensor<1x5xf32>
    %6 = "tosa.maximum"(%5, %2) : (tensor<1x5xf32>, tensor<1x5xf32>) -> tensor<1x5xf32>
    "func.return"(%6) : (tensor<1x5xf32>) -> ()
  }) : () -> ()
}) : () -> ()
